eguitilmis_veri.pth (torch, 367080 bytes, 10 tensors)

conv1.weight f4 [12, 3, 5, 5]
00000000: abc4 0a3e 56f1 83be 9c6a 573e 10e1 243e
00000010: 6018 cabd 2952 5f3e 8003 2bbf 987c 563e
00000020: 53db e03e 28c7 d2be 87a6 843e fdd8 49bf
00000030: 089d 783d 3f6b e83e 517f 03bf ec70 bf3e
00000040: dd2d bebe 74f8 503d 26a8 033f 4392 3abe
00000050: faf2 e03d fbaa 62be 9357 1bbe e991 ae3e
00000060: cf82 0ebe dbbb 153e 2efb bebe 5449 133e
00000070: 0e9e 533e fd43 44bd 0a57 573e 9b15 2ebf
00000080: 5d65 343e 985e d03e e4d2 c4be 472b f43e
00000090: 7c0e 15bf c429 373e 8991 3b3f 33f1 52be
000000a0: 87b6 c73e dc54 00bf fe25 2b3e 7434 433f
000000b0: 6604 51be 40af f9bd 0a00 61be 8b1e 87bd
000000c0: cacb 853e 7a8e 3bbe e352 623e a3eb 9cbe
000000d0: af6a 503d 60b9 503e f880 42be 4945 b53e
000000e0: e91a f3be 72bf 663c 96fa 843e f5e1 5cbe
000000f0: 0e82 d63e 083c 16bf 493a 21bd 54da 083f
00000100: 9447 abbe 0e55 b63e cf01 c0be dbde 8a3b
00000110: 94e2 c03e b7f3 49be f396 ca3d 8ca4 57be
00000120: b3d2 65be 0cb8 6f3e 9158 92be bbfc d1bd
00000130: d055 e2bd ca00 55bd c8cd 963e cc45 d03d
00000140: 85f7 59be 73b2 183e dd85 093f 3747 643e
00000150: 2754 4abd cae4 8c3b 4466 2f3f 13c2 c73e
00000160: 0083 eabd 2ab0 1cbe a6af de3e e7d5 5a3e
00000170: b208 cdbe 6e73 0abf 48e4 053d 8ab7 5e3d
00000180: bee1 5ebe d696 51be c835 c83d 76e0 9a3e
00000190: f235 75bd 7e7f 58bd 3221 1abe b39a b53d
000001a0: 8f09 7bbd c336 8abe 9ccc 40ba 1981 7f3e
000001b0: 3a0d e73d 5889 89be ea9f bebc 41d8 d03e
000001c0: ca3f 8a3e fcc8 03bf 3bc3 d9be f9a3 813e
000001d0: 61b8 fa3d 5304 15bf 448d 17bf afd8 1f3c
000001e0: 0619 19bc 7b9b bbbe 116a e1be 6262 fc3d
000001f0: 4d1d 913e 1c8f 29be c862 89be e046 813d
00000200: 2879 c83c 75c1 853d 5b2d b5be 8420 cf3d
00000210: efc7 a13e 3127 963e 7319 50be 5cd3 d5bd
00000220: abe2 243f a2fc 9d3e 7acd fbbd 62b2 85be
00000230: 4987 b83e 6883 993e 8d77 5ebe 45d4 0abf
00000240: 2545 a63d e2c0 c93c 3bd5 29be dbd6 62be
00000250: f1ad 363c 703d c13e 868c 50bd 003f a4bc
00000260: 6733 87bc 7c69 0c3d 7008 cebd e061 bd3c
00000270: 1914 6c3d 4500 d73d c15a 2bbe cb91 6cbe
00000280: 6d19 87bd d94b c3bd 5107 7abd b083 7ebe
00000290: 5259 5bbe 0fed 673d 2f7f 1abe a5fe 90be
000002a0: ad9f b8be 26fe cdbd 6c36 0cbd e422 2fbe
000002b0: d7e4 1fbe be33 6ebe c076 d93d a283 c23d
000002c0: 61c8 be3d db9f 88bd 1816 673a 24aa e4bd
000002d0: c2c9 9f3d e478 e53c de18 1abc 3667 bebd
000002e0: 636d 9bbe 4b9e 153e 802e c43d 31b5 383c
000002f0: d0ff 93be 951c 15be 5392 2a3e 5c85 41bd
00000300: 3343 3abe a6da 3ebe f930 a93c 10c9 acbc
00000310: 2a69 abbd 68fc f0bd 36f6 d33c aad1 873e
00000320: a1d9 d8bd ac19 663c 09d3 403d b8a6 c63d
00000330: b96f b5bb 23ff e8bc 847f 19bd 6c2f 0d3e
00000340: daf5 0cbe 83a5 0abe f038 0bbc 03bb 493e
00000350: 056f 87bd 651b 27be 1741 16bd be4e 6c3d
00000360: 03d7 b5bd fe7b e4bd 550d c03c 3cae 553e
00000370: ab47 3ebd 6161 c4bd c2f6 06be 6ba3 323e
00000380: 0e39 043f c97d c139 60cb 243e 958c 593d
00000390: fcea b1bd 51f0 84be f03e b0bd bc6e dd3d
000003a0: be06 023e 69e3 24be 88be 36be bd9d e7bc
000003b0: 94fe f63d 55a8 2d3d c89a 0f3c 5e30 383d
000003c0: 085a 2abd db8a 1cbd 1c05 253e 7ad5 0e3e
000003d0: fd1f 703e 830d e0bc 882b babe 4ee2 6ebe
000003e0: b8a1 26bd b775 7e3e de18 753e b37c 9c3e
000003f0: 4062 273e 6b83 b73d 4bbb 453c 7d11 c23c
0.13551585 -0.25770062 0.21036762 0.1610148 -0.098679304 0.21808685 -0.66802216 0.20945966
0.4391733 -0.4116757 0.259083 -0.7884672 0.06069663 0.45394322 -0.51366144 0.3739084
-0.37144366 0.051018193 0.5142845 -0.18219857 0.10983844 -0.22135536 -0.15170126 0.34095696
-0.13917087 0.14622442 -0.3730101 0.14383441 0.20665762 -0.0479164 0.21029297 -0.6800172
0.17616792 0.4069717 -0.38442147 0.47689268 -0.58225226 0.17887026 0.73268944 -0.20599823
0.39006445 -0.50129485 0.16713712 0.7625191 -0.20411834 -0.121916294 -0.21972671 -0.065976225
0.2613204 -0.18316069 0.22101931 -0.30648527 0.05088299 0.20383215 -0.1899451 0.35404423
-0.47481468 0.01408373 0.25972432 -0.21570571 0.418961 -0.5868535 -0.039362226 0.5345814
-0.33453047 0.35611767 -0.3750138 0.004237992 0.37672865 -0.19721876 0.098920725 -0.21058863
-0.22443657 0.23410052 -0.28583196 -0.10253283 -0.11051524 -0.052002706 0.29453874 0.10169563
-0.21285827 0.14911823 0.53719884 0.22292791 -0.04939666 0.0042997347 0.6851542 0.39015254
-0.114507675 -0.15301576 0.43493384 0.2137066 -0.40045696 -0.5408238 0.03268841 0.054374255
-0.21765801 -0.20467696 0.09775883 0.30249375 -0.0598659 -0.05285596 -0.15051726 0.08867397
-0.061288413 -0.26994905 -0.0007354708 0.2495159 0.1128182 -0.26862597 -0.023269612 0.4078999
0.27001792 -0.5147855 -0.42531762 0.25320414 0.12242199 -0.58209723 -0.5919993 0.009756251
-0.009344345 -0.3664206 -0.44026235 0.123234525 0.28342667 -0.16558498 -0.26833177 0.063123465
0.024471834 0.065310396 -0.35386166 0.10113624 0.3159785 0.29326776 -0.20322208 -0.10440704
0.6440837 0.30856806 -0.12295051 -0.26112658 0.36040714 0.29983068 -0.21725293 -0.5423015
0.08118657 0.024628107 -0.16585247 -0.22152273 0.011149869 0.37742186 -0.050915264 -0.020049572
-0.016504003 0.034280285 -0.10060203 0.02311796 0.057636354 0.10498098 -0.16733839 -0.2310249
-0.065966465 -0.09535951 -0.061042134 -0.24854922 -0.21420792 0.05662256 -0.15087579 -0.28319278
-0.36059323 -0.100582406 -0.03423159 -0.17103153 -0.15614639 -0.23261926 0.10618353 0.09497763
0.09315563 -0.06671115 0.0008815243 -0.11165264 0.07802154 0.028011747 -0.009405343 -0.0929703
-0.30356893 0.14611165 0.09579182 0.011273668 -0.28906107 -0.14561684 0.16657381 -0.047246322
-0.18189697 -0.18638095 0.020653235 -0.021091968 -0.08369668 -0.11766893 0.025874238 0.26527148
-0.105883844 0.014044207 0.04707626 0.09699768 -0.005537 -0.028441971 -0.037475124 0.13787621
-0.1376566 -0.135397 -0.008497462 0.19700246 -0.06612972 -0.16319044 -0.03668317 0.057692282
-0.08878901 -0.11156462 0.023443857 0.20867246 -0.046455067 -0.09588886 -0.13180068 0.17445152
0.5164956 0.00036905546 0.16093206 0.053112585 -0.08687398 -0.25964597 -0.086057544 0.108121365
0.12697884 -0.16102375 -0.1784612 -0.028273458 0.12060276 0.042396862 0.00876493 0.044968
-0.041589767 -0.03821836 0.1611523 0.13948622 0.23449703 -0.027350193 -0.36361337 -0.23328516
-0.04068157 0.24849592 0.23935267 0.30563888 0.16346073 0.08960613 0.01206858 0.02368998

conv1.bias f4 [12]
00000000: b189 21be b7d9 7fbd 4b1f b2be b320 d8be
00000010: b964 8fbe ef25 1bbd b9e3 0c3e fb72 1f3f
00000020: 669f 85be 1543 5f3e b520 13be f7ad 7dbe
-0.15775181 -0.06246349 -0.347895 -0.42212448 -0.28006533 -0.037877973 0.13758744 0.6228482
-0.26098174 0.21802934 -0.14367945 -0.24773394

conv2.weight f4 [24, 12, 5, 5]
00000000: 319b bbbd 1ac9 c9bd 8042 b7bd 6d71 96bd
00000010: a238 2ebd 9dac 43be 6152 bdbd b31b 17be
00000020: c9a9 0ebe c27f 96bd d88d 023d acef 2fbe
00000030: 180b 27be ce39 14be b228 65bd 4892 b5bd
00000040: 11b2 51be 8489 4abe c0a1 b7bd 066a 083d
00000050: dc12 51be 379b 4abe c1e6 1abe 773e 5fbe
00000060: b469 14be b6ea 1f3d 06a8 363c 8f93 3c3e
00000070: a851 713e 8f4d c03e b4f6 e23d d0b7 cd3d
00000080: 8939 103e f459 903e b896 913e df3f b73d
00000090: 5287 663e 3197 533e ebdd 7c3e d4ce b03d
000000a0: 68a3 6b3e b66b c93d 504c 1d3e 5e90 833d
000000b0: 4330 073e 17d4 3a3e 1c86 1b3d 4981 9b3d
000000c0: f4e8 6e3e b2dc 453e 7bf4 9e3d 84c7 5d3d
000000d0: 5532 e03d 843e ab3d 932b 923e 5b44 523d
000000e0: 5c69 66bb e4b8 88bc d4c5 fb3d 2c16 6a3e
000000f0: 4a6b e4bd 239d c4bd 06f2 13be 67de 673d
00000100: 2fc8 523d f7aa 0abe 5ad5 8dbd 590f a2bd
00000110: 8f61 a03c 093a aebc eab3 e33b 659c 993d
00000120: 78fe 04bd 0445 cd3c 4179 1bbc 6358 733d
00000130: ce9e 853c b721 4e3c f0af 8abd c6d7 febd
00000140: 4d40 913c 3e95 b83c 7da2 493d b5c6 ebbd
00000150: f2b3 ea3d 1a8a 213c 8c58 7fbd 94e2 cbbc
00000160: 21a8 833d 1237 babd e993 3abd 60ac 023c
00000170: 628b 8dbd 721e f8ba f98f 60bd df37 c13c
00000180: 20de f13d d988 38bc 29e4 e9bb 86c0 2bbc
00000190: 5839 993d 75c9 c93d cffb 883d 7b8c 37bd
000001a0: 726d 37be fceb bfba 83e3 063d f574 d13d
000001b0: d69e 9d3a f80a 63bd 7888 12bd c336 c2bc
000001c0: 7eff 44bd d5a8 aebd 0b55 a03c c36f 86bd
000001d0: 5e4d a03d 180a 61bd 405c 8cbd 7109 c6bb
000001e0: d9f6 7bbc a5fd 60bd f722 32bd 9080 1cbb
000001f0: d78d 1cbd bc51 7b3c 5888 aebc aa02 503d
00000200: b25c 27bd c5d6 933c 02e9 71bc f150 6bbd
00000210: 7371 d4bd 4096 ecbd 27d1 a33c 2490 91bc
00000220: 328a 4cbc 5dba ae3d 0914 e13c f913 f73c
00000230: 578c c93d 0a2d 7e3d f464 e6bb d9f5 a53c
00000240: 8ef2 a6bc 2599 d63d c61c e3bb ae7d 433d
00000250: 51c2 273d c469 b93d d6ce 5a3e 4174 3e3e
00000260: 88b4 413e c628 683e aa54 803a e17d eb3c
00000270: 2d74 e63d f460 b83d a7b5 09be 1b1a 8fbe
00000280: ffaa c73d d0fd b3bd da0e bbbd 4d8c 17be
00000290: 8f9e 643d 54a8 fcbc ee63 dfbd a9f3 b0bc
000002a0: 0352 433d 7b46 103e 8b4f 663b d61c 4abd
000002b0: b31a 29bd a410 553e aa7f fb3d 3b07 adbc
000002c0: 67f9 ddbd f42c 1dbd 5651 cdbc d033 20be
000002d0: de44 ffbd 614c 3cbd a310 babd b19b 4cbd
000002e0: d14e 393d 56b3 65bc e213 b2bd 7eca 3c3c
000002f0: 56bd bcbc dbd8 463d 2c72 33ba 7c7e 9f3d
00000300: 5732 0e3d 1afa fb3c d607 de3d 8312 2d3e
00000310: 580a 783d 59c2 623d 6013 033e 84d6 763e
00000320: 9116 a1ba 880d 4c3d 7963 063c 630d 52bd
00000330: 3841 f8bc f1ea b53d fb8c 6b3d 1c01 09bd
00000340: 63d1 18be 2ac7 52bc d56e 84bd 76e6 1abe
00000350: 0e11 89bd 732d 75bd b61b 1a3e bdcc 01bd
00000360: f4f3 233c a918 fa3d d2be 0e3e a7af 02be
00000370: e52c 6ebd 4195 1c3d 3baa 4b3d 081d b3bc
00000380: dcd7 7bbd 04fa 40bd d19a 85bd edce 71bb
00000390: e370 1e3d 546d 7d3d e8e8 d7bd 597c 44bd
000003a0: d93b ac3d 8064 d73d bed7 79bc ec1a 3fbe
000003b0: 2aa9 b53d 1db6 013d 0ac0 073c 9469 a7bc
000003c0: 9882 b9bd 62f6 df3d d58a 20b9 95bd 05be
000003d0: 133d 0ebc a544 993d f640 6bbc a918 c43b
000003e0: e22e 943d 3ffa f93d 01c4 8f39 3906 80bc
000003f0: 508f 6c3d baf2 27bc 1c76 f53c 8a48 213d
-0.0916046 -0.0985281 -0.08948231 -0.07345853 -0.042534478 -0.19108815 -0.09244228 -0.1475666
-0.13931955 -0.073485866 0.031873554 -0.17181271 -0.16312826 -0.14475176 -0.055947013 -0.088657916
-0.20478083 -0.1977902 -0.08966398 0.033304237 -0.2041735 -0.19785772 -0.15127088 -0.21801172
-0.14493448 0.039042197 0.011148458 0.18415664 0.23566306 0.37559173 0.11082211 0.10044825
0.14084448 0.2819363 0.28435302 0.08947729 0.22512558 0.20663144 0.2469403 0.08633199
0.23011553 0.09834997 0.15361142 0.0642402 0.13202004 0.18244968 0.037969694 0.075930186
0.23331052 0.1932247 0.07761475 0.05414535 0.109471 0.08361533 0.2854887 0.05133472
-0.0035158014 -0.016689725 0.12293592 0.2286002 -0.11153276 -0.09600284 -0.14447793 0.056608584
0.05146044 -0.1354178 -0.06925459 -0.079130836 0.01957777 -0.021267908 0.0069489377 0.07500533
-0.032469243 0.025057323 -0.009489358 0.059410464 0.016311076 0.01258128 -0.06771839 -0.12443499
0.017730856 0.022532102 0.049227227 -0.1151251 0.11460103 0.009859586 -0.062340304 -0.024888314
0.064285524 -0.09092535 -0.045551214 0.007975668 -0.06911351 -0.0018929972 -0.054824803 0.023586212
0.11809945 -0.011263096 -0.0071377945 -0.010482913 0.074816406 0.09852878 0.06688654 -0.044811707
-0.17912844 -0.0014642472 0.032931816 0.10227386 0.0012025486 -0.055430382 -0.035774678 -0.023707753
-0.04809522 -0.08528296 0.019571802 -0.065642856 0.078272566 -0.054941267 -0.06853533 -0.006043606
-0.015378677 -0.054929394 -0.043490376 -0.002388034 -0.038221207 0.015339311 -0.021305248 0.05078379
-0.040859886 0.018046746 -0.014765026 -0.05745024 -0.10373201 -0.115520954 0.019997193 -0.017768927
-0.01248412 0.0853164 0.027475374 0.03016089 0.09841221 0.06205467 -0.0070310775 0.02025883
-0.020379331 0.10478429 -0.0069309203 0.04772728 0.0409568 0.09053376 0.21367964 0.18599035
0.18916523 0.22671804 0.0009790857 0.028746547 0.112526275 0.09002867 -0.13448201 -0.27949604
0.09749412 -0.08788645 -0.09133692 -0.14799614 0.055815276 -0.030841984 -0.10907732 -0.021600561
0.047685634 0.14089386 0.0035142626 -0.049343906 -0.041285228 0.20807129 0.12280209 -0.021121612
-0.10838585 -0.03837295 -0.025063198 -0.15644765 -0.12464307 -0.045971278 -0.090852045 -0.049953166
0.04524118 -0.014019808 -0.086951986 0.011522887 -0.023039501 0.048546653 -0.0006845321 0.07787797
0.034715977 0.030758906 0.10841338 0.16901593 0.06055674 0.055361126 0.1280036 0.24105269
-0.001229005 0.049817592 0.008202427 -0.051282298 -0.030304536 0.08882702 0.057507496 -0.033448324
-0.14923625 -0.012864867 -0.06466452 -0.15126976 -0.06692706 -0.059857797 0.15049633 -0.031689394
0.010006893 0.12211735 0.1393998 -0.12762319 -0.058148284 0.038228277 0.04972289 -0.02186443
-0.061485156 -0.047113433 -0.065236695 -0.003689702 0.038681876 0.06187184 -0.1054247 -0.04797015
0.084098525 0.10517216 -0.015249191 -0.18662614 0.08870156 0.031667817 0.008285532 -0.020436086
-0.09058112 0.10935666 -0.00015310508 -0.13060601 -0.008681553 0.07483796 -0.01435875 0.005984385
0.07235505 0.12205934 0.0002742112 -0.015627967 0.05775386 -0.010250742 0.029963546 0.03937582

conv2.bias f4 [24]
00000000: 84d6 49bd c88f 0fbf 2b67 e53d a80f b13e
00000010: 03b7 f43e f9d2 cc3c fd71 adbd a02e 4dbd
00000020: 05af 51bf 9d3a a8bd 5704 143e 8e59 ecbe
00000030: b38f 03be 5d45 853e 9f8e a53e 6ff4 31be
00000040: ad7c a23c 48fe cc3d 47c2 a03e 6efc 883e
00000050: f9bc d13d 610e 25be 40ff 9f3e 95d8 8ebd
-0.049276844 -0.5607877 0.11201318 0.34582257 0.47795877 0.025002943 -0.08469007 -0.050093293
-0.81907684 -0.082143046 0.1445478 -0.46162075 -0.12847786 0.26029482 0.32335374 -0.173784
0.01983484 0.10009438 0.31398222 0.2675509 0.10241122 -0.16118766 0.31249428 -0.069749035

fc1.weight f4 [120, 600]
00000000: f285 aeba 3ae1 b1bc 7ce1 8f3d 6378 8f3d
00000010: 9929 06bc 06bc ab3d bdce 3e3d 2595 52bc
00000020: 51b7 373c 7f47 97bd 8e65 45bb 753d 463d
00000030: 81f2 a3bb 1248 24bd b858 b9bd 7d46 00bd
00000040: e673 3dbd d283 11bd 561e adbd 4524 04be
00000050: 58e0 a8bd 47b3 283d ccbd eb3c 421a d3bd
00000060: 9ecf f7bd ff8d 993d 02cb 16bc 9576 d23c
00000070: 2919 c2bb b107 97bd fa9c 0ebd 5cc8 f13c
00000080: db22 80bb 49d2 c0bc ecd3 3a3d d9d6 0d3d
00000090: a62d 92bb 0d02 a33c 012a 45bd e279 c43d
000000a0: 5d3d 983c 6b1d 48bd 47b9 80bc 50f5 72bc
000000b0: 26ff f03b 9975 c9bb 8083 69bd ba64 e0bc
000000c0: ed8b 0d3c 1e02 943c 17ae 10bd 5d21 83bb
000000d0: 20ac cb3b e975 573b eb2a 8a3d e7e0 95bc
000000e0: 24d3 3e3c b4de b23c cca7 fc3c 0414 8dbb
000000f0: cc3e a4bc 72c9 14bd c2cd 553c 93e2 0d3c
00000100: cf5a 2ebb 491b 853c 92a7 8d3c fe85 993c
00000110: 56cd 69bc 5f07 8c3d dfa0 433d 5ba2 1dbd
00000120: 0acb 95bd 86f4 1c3d c823 9f3d 75c7 6ebd
00000130: 9d8b 783d 9dee 293d e4ea 8f3d 1252 de3b
00000140: bcc5 8a3c d4dd dc3c b19a 873c 45ff a63d
00000150: 8921 73bd b7a2 8dbd f94b 0a3d 3170 adbc
00000160: f76c 57bc 389d 323c 3d0c a3bd 4fac 2dbc
00000170: da1d 90bd 47b4 70bd 3f56 313c a616 3ebc
00000180: eddd 16bd 37c3 22bd 1bc2 44bc 44fb bfbd
00000190: 64ae 113b 856a bf3c 25a9 513c add6 b53c
000001a0: fb41 6bbd 7ae2 00bd 667b c1bb f0a2 a4bc
000001b0: 5851 dfbb 1e77 67bb 5f53 82bd c27d 85bd
000001c0: 5c02 33bd ea3a 313d de67 833d de48 59bc
000001d0: e301 d93c 0662 b43c 536d b8ba 9224 75bc
000001e0: 9093 cebc 8458 b3bd bf1c b03c 0217 e9bc
000001f0: 9719 1f3d 6288 ecbc fb92 24bd fa04 d4bd
00000200: c3ee b4bc 4810 a73d b92d b9bc 9044 5cbc
00000210: 9e09 acbc 50c6 ecbb 5826 c73d c7ff 13bd
00000220: dbfc 0c3d 7c8a 55bd b5b6 183d a2f4 453d
00000230: f8ec 68bd c99b f33c c238 bbbc 0d58 a13d
00000240: 311e aebc 9061 7dbd d7d8 a2bd 888e dcbc
00000250: 96db aabd 3646 d53b 8383 583c 980d 5cbd
00000260: 36a4 8abd cc21 bdbd 075c edbc 5bf6 3dbc
00000270: b9fa 8cbc 5536 c23c 152a 4dbd 599e d3bd
00000280: 434f 87bc 0792 90ba 2bfa d33c 83a1 9d3c
00000290: 42e3 b0bd 1626 403d d5f3 0cbd 8230 2ebd
000002a0: 492f 8b3c 9517 e2bc 72af f6bc 6388 49bd
000002b0: dad4 823c 9fc5 8dbc b34d 8a3d 3f98 5f3d
000002c0: d6e5 b33d 2f97 533d 0235 a5bc b690 9b3c
000002d0: 873b 413d 7803 a23d 86fa 803d 82ce 443c
000002e0: 644c 4fbc 938e 703c 8ebf ef3c b132 2e3d
000002f0: 45e8 753d 788b 603d 6807 69bd 8d78 d9bc
00000300: f151 3f3d 68ef 66bd 9c76 213d 9407 b0bd
00000310: 29b7 4a3c d3cf 7fbd 7665 fe3a 1434 23bc
00000320: 695e 25bd 9709 4fbd 16db c33d c13e 7bbc
00000330: 8ab9 a83c 7bce 653b e76f f13b 60a5 943d
00000340: 531a bebc 94cf 863c 83b8 02bc 2834 833d
00000350: 0165 fe3c 968e 4a3c 02a8 23bc 3a10 27bd
00000360: eb40 65bd fa00 5abb 54ad 3eb9 62ba cd3c
00000370: 0787 9c3c af8a 29bd 826e b1bb c6e0 ee3c
00000380: adc4 593c 6e9e 4e3d c54c 703d ae5c 6a3c
00000390: 6510 08bc b03f a33c b78e f43c 4854 263d
000003a0: 64c6 423d 9db9 56bc bce5 8f3d 379a 08bc
000003b0: eb0b 693a 1d4d 0e3d 8d1f 0abc fb54 aa3d
000003c0: e859 463c b1a8 083d 8c9d 5fbd 79dd 823c
000003d0: 30f8 303d 2f1f 70bc c823 e73c 19d6 25bd
000003e0: 1d99 b33d 1f21 8c3d 4e01 6b3c fa62 ed3c
000003f0: 7116 19bd 7a6d 7d3d 4ce6 39bd d8de 483d
-0.0013315065 -0.021713842 0.070254296 0.07005384 -0.008188629 0.08385472 0.04658388 -0.012852942
0.01121314 -0.07386684 -0.0030120346 0.048398454 -0.005003274 -0.040107794 -0.09050125 -0.031317223
-0.046253107 -0.035526104 -0.08453052 -0.1290446 -0.08245915 0.041186597 0.028777026 -0.10307743
-0.12100147 0.07497787 -0.009203674 0.02569131 -0.0059234095 -0.07374514 -0.034817673 0.029514484
-0.003910405 -0.023537772 0.04561226 0.034628723 -0.004461008 0.019898439 -0.04813576 0.0959356
0.018583948 -0.04885618 -0.015713347 -0.014828995 0.007354635 -0.006148052 -0.057010174 -0.02739178
0.008639318 0.018067416 -0.035322275 -0.00400178 0.0062155873 0.0032876676 0.06746467 -0.018295718
0.01164702 0.021834709 0.03084173 -0.0043053646 -0.020049475 -0.036324926 0.013049545 0.008659977
-0.002660442 0.016248362 0.017291818 0.01874065 -0.014270147 0.068373434 0.04776084 -0.038484912
-0.07314117 0.038319133 0.077704966 -0.058295686 0.06068002 0.041487325 0.07027224 0.006784686
0.01693999 0.026961245 0.016553255 0.081541575 -0.059358153 -0.06915801 0.03376386 -0.021171661
-0.013148538 0.010901742 -0.07961319 -0.010600164 -0.07036944 -0.058765676 0.010823785 -0.0116020795
-0.03683274 -0.039736953 -0.012009169 -0.09374097 0.002222919 0.023366222 0.012796675 0.022197092
-0.05743597 -0.031465985 -0.005904603 -0.020097226 -0.006815117 -0.0035318802 -0.06363558 -0.06518127
-0.043703422 0.043269075 0.064162955 -0.013262002 0.026490157 0.022019397 -0.0014070667 -0.014962332
-0.025216848 -0.087571174 0.021498082 -0.028453354 0.038842764 -0.028873626 -0.040179234 -0.10352512
-0.022086507 0.08157402 -0.02260481 -0.013444081 -0.02100068 -0.007225789 0.0972411 -0.0361326
0.03442083 -0.052134022 0.037283618 0.048329003 -0.056866616 0.02973737 -0.022854213 0.078781225
-0.02125463 -0.06186062 -0.07951515 -0.026923433 -0.08342664 0.006508614 0.013214949 -0.0537239
-0.06769602 -0.09234962 -0.028974546 -0.01159438 -0.017209398 0.023707548 -0.05008896 -0.10332937
-0.016517287 -0.0011029848 0.025876125 0.019242054 -0.08637096 0.04691132 -0.034412224 -0.04252673
0.01699032 -0.027599135 -0.030112956 -0.049202334 0.015970636 -0.017306147 0.06753101 0.054588553
0.08784072 0.05165785 -0.020166878 0.018989902 0.04717591 0.07910818 0.062977836 0.012012126
-0.01265249 0.01468243 0.029266145 0.04252881 0.060035963 0.054820508 -0.05689183 -0.02654674
0.046709005 -0.05638066 0.039419755 -0.085951954 0.01237277 -0.062454056 0.00194089 -0.009961147
-0.04037324 -0.050546255 0.09563272 -0.015334786 0.020596284 0.00350657 0.007368076 0.07258105
-0.023205912 0.016456403 -0.007978561 0.064064324 0.031054022 0.012363097 -0.009988787 -0.04078696
-0.055970114 -0.0033264742 -0.00018184382 0.025113288 0.019107355 -0.041392025 -0.005414785 0.029159915
0.01329152 0.05044406 0.058666963 0.014304323 -0.00830469 0.01992783 0.029853208 0.04060772
0.04755248 -0.013105777 0.0702624 -0.008337549 0.00088900205 0.03474151 -0.008430374 0.0831699
0.012106396 0.033364 -0.054593608 0.015974747 0.04320544 -0.014655872 0.028215304 -0.040487383
0.087694384 0.06842255 0.014343573 0.02897786 -0.037374917 0.061871983 -0.045385644 0.049040645

fc1.bias f4 [120]
00000000: ea97 23ba 0312 f2bd 68cd 953d a519 2cbc
00000010: 0346 f63c d25f 98bd 99c4 813d 59d6 8cbb
00000020: c51e 673d da59 223d 77bc 69bd 5028 513c
00000030: 4f02 81bd bc23 39bb 0dfa 503d 7e22 f13c
00000040: 702c d5bd 0fe1 393e 5853 85bb 4d96 863d
00000050: 9df2 d33d 16e0 363d 499f e6bd 2993 f63d
00000060: 049a 0a3d 6b02 3fbd 2be8 993d 87a9 a4bd
00000070: 1e86 61bc 407a 19bd 449c 9dbc 67a8 83bc
00000080: 2ab5 d9bd ab9b a63c 6d42 47bc c614 9a3d
00000090: 6b10 7fbd 75ca b6bc d281 e8bc fe98 e63d
000000a0: afba 323d 2ac7 55bc a88f 473e 0ef9 e4bc
000000b0: b3ac d03b 3e27 bbbb 10f3 a03c 06d4 e33d
000000c0: 81db 5dbd 5db1 813c 9e25 16bb f4ea 83bc
000000d0: 628c c5bc e3e5 9fbc 7951 a4bb 6073 c43d
000000e0: a2c0 d6bc 5838 14bd 47d0 6d3c 2612 b53b
000000f0: 330e 0d3d c5f7 18bd d961 4c3d 5b87 053e
00000100: 7d37 d5bc 543d 233d 2005 203c 7281 98bd
00000110: 3292 403d 4a8a 433d 2548 3dbe 6a99 8f3d
00000120: 69a5 453d 384a a13c c564 d33b 383f 613c
00000130: 195d 04bd b37e 49be 4b3d e1bd e89e 9b3d
00000140: cce0 163e eb38 a5bd 0f09 823d d648 f9bc
00000150: 3636 863c e34b 00bc 3122 cc3d 5fa4 d9bc
00000160: 0490 273e 9b52 57be 1b95 873d 969a e6bb
00000170: a740 813c eabd a03b e15f a53b 0842 1b3d
00000180: d3e2 0d3e 8d52 5a3d ccd9 d23c 5d24 edbb
00000190: 77e4 8bbd 177c 073d 79fb 103d 64ed 28bc
000001a0: de0b a73c 9537 573d 377b ab3c 7fc9 153e
000001b0: a7bf 583d f1cd 633e b916 0ebd 71fa f73c
000001c0: a178 643d f37a c03d 4ff4 ef3d f3a3 dabc
000001d0: 9fe0 0b3e 31af ee3d 4212 373e de9b 7b3d
-0.00062405935 -0.11819842 0.07314569 -0.010504161 0.030062681 -0.07440151 0.06336326 -0.004298013
0.05642583 0.03963647 -0.0570645 0.012765959 -0.062992685 -0.002825006 0.051019717 0.029435392
-0.104088664 0.1815226 -0.0040687732 0.06571636 0.10349009 0.0446473 -0.1126085 0.12039787
0.033838287 -0.046633165 0.07514986 -0.08040147 -0.013764886 -0.037470102 -0.019239552 -0.016071511
-0.106302574 0.0203379 -0.012161833 0.075234935 -0.062271517 -0.022313336 -0.028382216 0.1125965
0.043635067 -0.013047973 0.19488394 -0.02795079 0.0063682436 -0.005711465 0.019647151 0.11124425
-0.054164413 0.015831644 -0.0022910605 -0.016103245 -0.024114791 -0.019518798 -0.005014595 0.095923185
-0.026214901 -0.036186546 0.014514989 0.005525845 0.03443737 -0.037345666 0.049898002 0.13039915
-0.026027435 0.03985341 0.009766847 -0.07446565 0.047014423 0.047739305 -0.18484552 0.07011683
0.04825345 0.01968871 0.0064512216 0.013747983 -0.032315347 -0.19677238 -0.10998019 0.07598668
0.1473419 -0.08067497 0.06349384 -0.030430239 0.016383272 -0.007830593 0.09967459 -0.026567636
0.16363531 -0.21027605 0.066202365 -0.007037471 0.015777899 0.004905452 0.00504683 0.03790477
0.13856058 0.053301383 0.02573862 -0.007237001 -0.068306856 0.033077326 0.035396073 -0.010310505
0.0203914 0.05254324 0.020932777 0.14627646 0.05291715 0.22246529 -0.03468964 0.030270787
0.055779103 0.09398451 0.1171652 -0.026689505 0.13659905 0.11654509 0.17878059 0.061427943

fc2.weight f4 [81, 120]
00000000: 8bd9 173e ab3b 47bd 98ba c33c 0a2d f8bd
00000010: daaf c83c 8929 ab3d 755d e33d 1a12 263c
00000020: 2a5e 22be 9f70 09be 77bb 223c 8d42 3bbd
00000030: 4dbd bbbd b1c2 ae3d 4c3a 0bbe 6488 f3bd
00000040: 0371 15be 1c21 f1bc 06b6 f1bc 0de5 0dbd
00000050: 3b8a a93d 7256 e5bd bc2f e83c d7e3 a0bc
00000060: 9dd3 d8bc 3bc8 e6bd 025b c53d b5f1 d33d
00000070: 7db5 0fbd c4c0 e6bc 9f12 28bd 97e1 05be
00000080: b146 9d3d 7c92 74bd 12de 72bc e237 d1bc
00000090: ca40 ba3d 5f8f 01be e6f1 9b3d 5073 6e3e
000000a0: d896 e03d 8ee2 88bd 0a3a c3bd 3ba0 423d
000000b0: 7b14 e73b e5a5 acbd e86a b2bd d9d2 00be
000000c0: d03d 03bc 0c63 503d bf55 c23d 5b05 463d
000000d0: 491c f7bc 1b9b a23d 5e23 463d ac12 0bbe
000000e0: 81a9 c93d a57b 42bd 91ab 993d 8ffa b63d
000000f0: b3d6 6b3d 2cce 07bc 6e92 f9bd 0dda 59bd
00000100: e2c6 97bc dff8 f9bc b99f 8dbc c475 36bd
00000110: 7b65 0e3d 0067 5dbd 0290 ac3d e23b cb3d
00000120: 1435 6b3d 3d12 073c 00c8 8f3d d0a2 89bc
00000130: e5b0 8b3c ec03 053e db2e f0bd eda8 26bd
00000140: c107 8dbd ae29 23bd 01c4 c7bc 8836 e63c
00000150: 6057 b2bc 2eb2 c33d 7fa5 b53c af5d a83d
00000160: 14f7 b13d 4d72 28be f3e1 e7bd 5c13 07be
00000170: 568e aa3d ae44 b5bb 2bcd 203d 6b8a bf3a
00000180: 1590 013e a041 9dbd 63a8 d73c bee9 77bd
00000190: 7d5a b33c b141 133e 3cbb 8c3c 8378 9e3d
000001a0: a679 3f3d 3b32 0bbe dc36 953c 6293 08be
000001b0: 94f6 c2bd 2a65 81bd 3c55 363d d36d 393e
000001c0: f7cf 43bd b1fe 833d 3bad d63b 5ab0 a1bd
000001d0: d19a 76bd aaec fd3d 8ba4 61bd 8a63 1fbd
000001e0: 440b c43d f293 dabd a461 d9bd 4f38 c1bc
000001f0: d220 643e 470e 823d 102c 79bd c1a7 013d
00000200: 8299 10bd aea0 c63c 130f a9bc d94a 743e
00000210: 6da5 c03d 095e 07be b7a4 d83d a1a6 62bd
00000220: efb6 dd3d ead9 09bb d6a1 033b d551 efbb
00000230: aa19 4dbb 6d50 0d3d b43b 4e3c 278b 83bd
00000240: 5e50 5bbd 12da ef3d d86e 05bd 7564 d0bb
00000250: b36b 91bd b738 f8bd 3600 5ebd 6556 49be
00000260: 4044 bcbd f79f 2dbe 1c9d a43d 3e5c c93d
00000270: 2cfc 8b3d b20f 6abd b273 08be 7640 9ebb
00000280: 10a7 dcbc 3339 9f3d 5846 0d3e 24df a73c
00000290: c47e 9f3d e34b 3f3e e616 503d 09b8 a1bc
000002a0: 3a50 09be 5352 1fbe a81a 47bd 0a5c 8b3d
000002b0: 4e3b c33d 0d32 00bc 1eba 2dbe 138d ba3c
000002c0: 993a 0e3d 7f81 26bd 207f b33d 632b ec3c
000002d0: 9b83 8d3b 9901 6c3d a05d 3b3d 0edf 293c
000002e0: cb98 87bd 42de fd3b 6827 033d 2a59 d93d
000002f0: 1c1a b43d 44ef 903d b981 f23d 439f 3e3d
00000300: 7ccb ad3b 0efe f93c 9320 5ebd 75e7 f83d
00000310: 64bd 3abd 890b 713e 6d3d bcbd 88c6 8abd
00000320: 39b5 e9bc 540e db3d d279 363d bf89 07be
00000330: 765b 823d 3738 de3d 68c7 0e3d 9674 c2bc
00000340: 8415 e73d 7b39 1fbe 7b45 c3b9 0d87 4e3e
00000350: 6d5f b2bd a433 70bd c6f9 ffbd cbea 793c
00000360: 0a8d 14be 3158 513d 28a8 4b3d 5a6e b1bc
00000370: a7c5 e03d cec0 c5bd cde5 a53d 202e 08be
00000380: 5f89 353e 50de a23d d6e0 213c fd31 a9bd
00000390: 5467 fbbc 23b0 203d c167 973d 573f 363d
000003a0: fb87 4abe a7cc 81be 3b3c 4dbd b4dd f23d
000003b0: 691f d5bd f4a0 01be 17a0 09be be2d a13d
000003c0: dc15 223e 5ccc 1dbc e8f8 073e 01ee 97bd
000003d0: d1ab f53b 8cf2 403d b8f0 0abe a608 083d
000003e0: a9be 9cbd ee7f b33d e361 b0bd 2c67 2bbd
000003f0: 9dc1 eb3d 4577 9bbd 71fb 8f3b b459 4d3d
0.1482908 -0.04864089 0.023892686 -0.121179655 0.024497915 0.083575316 0.1110181 0.010136152
-0.15856233 -0.13421868 0.00993239 -0.045717765 -0.09166966 0.08533228 -0.13596457 -0.11891249
-0.14593892 -0.029434733 -0.02950574 -0.034642268 0.082783185 -0.11198129 0.028343074 -0.019639893
-0.026468093 -0.1126866 0.09636499 0.10348836 -0.03508519 -0.02816809 -0.041033383 -0.13074337
0.07679499 -0.05971001 -0.0148234535 -0.025539342 0.09094389 -0.12652348 0.07614498 0.23286176
0.10966271 -0.06683837 -0.095325544 0.04751609 0.007052002 -0.08430079 -0.08711797 -0.12580432
-0.008010343 0.05087571 0.09489011 0.04834495 -0.030164855 0.0793974 0.048373573 -0.13581342
0.098467834 -0.047481198 0.07503427 0.08934509 0.0575778 -0.008288901 -0.12186132 -0.053186465
-0.018527452 -0.030514179 -0.017288076 -0.044545904 0.034764748 -0.054053307 0.08425905 0.09923531
0.057423666 0.008244094 0.07020569 -0.016801268 0.017052123 0.12989777 -0.11727687 -0.040688444
-0.068862446 -0.03983467 -0.024385454 0.028102174 -0.02177018 0.095554695 0.022173641 0.08220994
0.086897045 -0.16449852 -0.11322393 -0.13190979 0.0832793 -0.005531869 0.039258163 0.0014613395
0.12652619 -0.076785326 0.02632541 -0.06052565 0.021893734 0.14380528 0.017179124 0.077378295
0.046746872 -0.1359338 0.018214636 -0.13337472 -0.09519687 -0.06318124 0.04451488 0.18108301
-0.047805753 0.06445063 0.0065514124 -0.078949645 -0.06020624 0.12398656 -0.05508856 -0.038913287
0.09572461 -0.106727496 -0.106143266 -0.02358642 0.22278145 0.063503794 -0.060833037 0.031654123
-0.035302646 0.02424654 -0.02063707 0.23856677 0.094065525 -0.13219465 0.10578292 -0.05533469
0.108259074 -0.0021034428 0.0020085475 -0.0073034563 -0.0031295815 0.034500528 0.0125874765 -0.064230256
-0.05354344 0.117115155 -0.032576412 -0.0063596317 -0.0710062 -0.121201925 -0.05419942 -0.19661863
-0.09192705 -0.16955553 0.08037779 0.09832047 0.06835207 -0.057143874 -0.13325384 -0.0048294617
-0.02693513 0.07774582 0.13796365 0.020492144 0.077878505 0.18681292 0.050803088 -0.019741075
-0.1340951 -0.15558748 -0.048609406 0.068046644 0.09532796 -0.007824433 -0.1696553 0.022772348
0.03472385 -0.04065084 0.087644815 0.028829282 0.004318667 0.05761871 0.045743585 0.010368122
-0.0662094 0.0077474425 0.032020003 0.1061271 0.087940425 0.07076886 0.11841149 0.046538603
0.0053037982 0.03051665 -0.054230284 0.12153522 -0.045590773 0.23539557 -0.091914035 -0.06776148
-0.028528797 0.10696092 0.04454977 -0.1323614 0.06365101 0.10850566 0.034858137 -0.023737233
0.11283401 -0.15549271 -0.00037245065 0.20168705 -0.08709607 -0.058643 -0.124988124 0.015253733
-0.14506927 0.051109497 0.049720913 -0.021659065 0.10975199 -0.09655915 0.08100472 -0.13298845
0.17728184 0.07952559 0.009880265 -0.08261488 -0.03068892 0.039230477 0.07392836 0.044494
-0.19778435 -0.2535145 -0.05010627 0.11858693 -0.10406382 -0.12659055 -0.13439976 0.07870053
0.15828651 -0.009631243 0.13278544 -0.074184425 0.0074972888 0.04710631 -0.1356839 0.033211373
-0.07653553 0.08764635 -0.086124204 -0.04184644 0.11511538 -0.07591108 0.004393988 0.050134376

fc2.bias f4 [81]
00000000: b107 413d 6813 3d3c 7309 273e e76c c13d
00000010: e969 8bbb aef9 99bc 49e0 a3bd e7f4 8d3b
00000020: 3af6 c4bd da7e 90bd 71ff 95bd 47b5 c33d
00000030: e66d 4abd a26f d23d 8bf8 7f3d 66c2 e7bd
00000040: ec7f 35bd d53a 6abd 1c29 73bd 5bbb edbc
00000050: 5e74 e9bd 98f7 113e de4d 653e 9636 463e
00000060: 5821 3b3e 6f0e f43d 3139 48bd 89a8 b2bd
00000070: 13ee b0bd 7597 803e ddfd c3bc e985 563e
00000080: e780 a83d a197 62bd ed23 15bc 829a 323b
00000090: 2e34 313d 923a b63e 068d 98bd d6d4 53bd
000000a0: 579b b53c d576 733d b02b de3c d591 05be
000000b0: 2844 543e 52e2 fe3d e73d 85bd b530 793c
000000c0: a416 aebd dd9f 573c 7c46 233a 613f 383d
000000d0: 9cf0 dc3d f5c0 153e 6d89 7d3d 73f5 bebd
000000e0: ff64 dcbd bcac 09bd 0f37 45bd 8fe2 9a3d
000000f0: 775e 93bc 55aa 2f3e 2974 503e d078 0d3d
00000100: fe46 163d c668 4e3e 4b0c 4cbd b126 ae3b
00000110: bb9a a4bc 9040 37be 3ba0 bd3d 037d 413e
00000120: 7e23 72bd 15a4 d4bc 0ef4 b8bd 1ab0 933e
00000130: 35da 93bd 3b11 4b3e 8a09 a3bd 5106 4e3e
00000140: 07cd f73d
0.047126476 0.011540271 0.16312198 0.094445996 -0.004254569 -0.018795814 -0.080017634 0.004332173
-0.096172765 -0.07055445 -0.07324112 0.0955606 -0.049421214 0.102751985 0.06249289 -0.113163754
-0.04431145 -0.057185013 -0.059365377 -0.029020002 -0.113991484 0.14254606 0.22392985 0.1935676
0.18274438 0.119168155 -0.048882667 -0.08723552 -0.08639159 0.25115553 -0.023924762 0.2094952
0.08227711 -0.055320386 -0.009102804 0.0027252738 0.043262653 0.3559156 -0.07448773 -0.051716648
0.022168798 0.0594395 0.027120441 -0.13043912 0.20729125 0.12445511 -0.065059476 0.015209367
-0.08500412 0.013160673 0.00062284595 0.044982318 0.1078808 0.14624389 0.061898638 -0.093241595
-0.10761451 -0.033611998 -0.04814821 0.07562744 -0.01798938 0.1715482 0.20356812 0.034539044
0.036688797 0.20157155 -0.04981641 0.005314671 -0.020093312 -0.17895722 0.09259077 0.18895344
-0.05911588 -0.025957147 -0.09030925 0.28845292 -0.07219354 0.19830792 -0.07960804 0.20119597
0.12099653

fc3.weight f4 [10, 81]
00000000: e149 6bbe 2e90 28bd e356 e13d 7f09 1cbe
00000010: bda7 50be 3a7a aa3e ee27 0e3d 66e7 b6be
00000020: 198f 9dbd 3f68 16be 2d1c 22bd b3cb 0ebd
00000030: a31e 6e3d 686f 0e3e ee9c 45be be35 c0be
00000040: ca52 dd3e b6a9 6f3c 0465 303d 96ea df3e
00000050: 0720 a73e e14c 023f dd31 28be 0b56 3f3e
00000060: ae39 1ebe ca1c 723e ced3 8fbe 1fa3 10be
00000070: df00 5e3d 2907 c2be 7bd2 483d dc5f 4cbc
00000080: 898b 04be 6635 103e 40ee 8a3e f24b 29be
00000090: 9556 4bbe 05cd d7bd d69a e5be c349 8a3d
000000a0: 2231 513d 5a60 133d 5af5 e3bd 8e4f b03c
000000b0: 0a48 58be 1bc2 b2be c55e 9abc e0f4 ff3d
000000c0: 47b7 cbbe a7e7 8d3e b443 833e 6603 ae3e
000000d0: cf96 21bd 335e 83bd 3a6d 123d 9949 173e
000000e0: 35c0 c33e 62c6 31be 0047 11be f47b 58be
000000f0: d067 fb3d fe40 e6bd a9c7 e93c 95ef c1bc
00000100: 69d1 e93d ec5b 9b3e 4b82 d5bd 7b39 b6bd
00000110: ba10 e23d b4d5 d93e c72e cb3e 635f 7b3e
00000120: ba3c 773e fdb3 25be cfcf bdbd 1853 38bd
00000130: 2662 77bd 6b4b 743d 0cd4 173e 7e3e 05be
00000140: c83f 3bbe 5148 59bd 4875 20be 840f 00bf
00000150: c4ef 5cbe f765 85bd 2074 883d 7e16 e0bc
00000160: 96e1 923e 10bc 4e3e 1703 923e cb10 c7be
00000170: 56cc 73be 7ba3 4e3d 70b2 283d a91a f93e
00000180: 7373 e43e c745 a5be 6a53 d03d 97bf b23e
00000190: 8dd6 353d 6f55 f9bd 1525 7abe 6cdb 6ebe
000001a0: 86c9 1c3e 4f5c b93c 7123 a3bc 0017 02be
000001b0: fe24 6b3c b294 123e c5ec 84be f474 c43b
000001c0: e78c 3cbe 5b96 5cbd 3325 4a3e cda6 fabc
000001d0: a059 f23e 2463 63bd ba98 ebbd de23 983d
000001e0: f416 25bc 724a 1b3e 0e9b 8bbc 6f79 543e
000001f0: 86f9 223e 0dd8 ee3d afda db3d 4bf3 413d
00000200: 8573 643e c5ae a63e 612f 303e f385 9fbe
00000210: dcf9 7dbe f82d c73d 4de7 80be 5549 193e
00000220: 8539 30bd 85f5 86bd 7b78 efbd 4a28 7b3d
00000230: a0fd 8ebd eda3 3ebd 6110 a03d 5393 6bbd
00000240: 6f5e bd3d c14a 723e b41a 99be 7240 0f3e
00000250: 9f5f 193e 7b92 1d3d d56b c73e 0292 ce3d
00000260: 0f70 e2be 94e3 71be 5372 eb3d 3854 e83d
00000270: 14d1 b9be 4c7e bdbd 69bb 803e c004 c6be
00000280: 532a adbd 69e1 c8be c85f 9e3d 4b4e a03e
00000290: bab4 533e 2d08 1bbc be0a 28bd 659c 763d
000002a0: 7041 c53e cc7f 7c3e 1727 c2be b8c6 5ebd
000002b0: e16a df3b 7cc1 2dbe 7fbc 8a3e 6ea6 4d3d
000002c0: 915e 933d 8785 bb3e fd61 ae3c 839c 96be
000002d0: bdd6 e9bd b4d9 4f3e 5339 8abe 7212 c03e
000002e0: 6a09 95be d35d a6be b2a8 1e3d 5fec 163d
000002f0: 02b4 dc3e c96c 09be 481f 50bd 0c68 8a3e
00000300: 2723 003e 25fc 01be c7d1 80be 797d 253d
00000310: 83dc febd b503 a5be 8124 cc3e b767 99be
00000320: fafd 29be ff3b ad3b c596 40be c697 adbe
00000330: c80e 34be 8206 17be d21b 0dbe 9694 d83d
00000340: efd6 3fbe 978d 56bd 9785 0b3e 56ab 9ebe
00000350: 92b3 e83e 73a0 c63b 0725 acbe 3bc9 183e
00000360: 8ff7 18be 8430 dabd 95e1 0c3e dade 04be
00000370: af10 223e 1587 e63e 204d aebd 152e 49be
00000380: 6af7 a9be 7c7c b63d a91d f93d 09bf b23e
00000390: 1651 863e c3d0 883e e746 9a3e 6f72 a73d
000003a0: 5f4c 93bd c4ec f63d f6e8 093d 9c39 b33e
000003b0: 052b 1dbd 8525 5a3e cbb6 e9bc fda7 9d3e
000003c0: 229d 54bd d563 c73d 7bf6 b93e 2b4a b6bd
000003d0: c5d1 90be f99a 9c3e 9def 8d3e fcb5 d63d
000003e0: 28aa c43d eeec df3d cfc2 74be db94 a23e
000003f0: b9f0 613e 6d71 903d a308 963e b1cd 023e
-0.22977401 -0.041153125 0.110029005 -0.15237997 -0.20376487 0.33296376 0.03470605 -0.35723418
-0.07693309 -0.14688204 -0.03957765 -0.03486223 0.058134686 0.13909686 -0.19298145 -0.37541002
0.43227226 0.014627865 0.043065086 0.43733662 0.32641622 0.5089856 -0.16425271 0.18685167
-0.1545169 0.23643795 -0.28091282 -0.14124726 0.05420005 -0.37896088 0.049028855 -0.0124740265
-0.12943853 0.1408287 0.27134895 -0.16532877 -0.19857247 -0.10537151 -0.44844693 0.0675235
0.051072247 0.03598056 -0.111307815 0.02152231 -0.2112123 -0.34913716 -0.018844018 0.12497878
-0.39788267 0.277158 0.2563759 0.33986968 -0.039450463 -0.064144515 0.035748698 0.14774169
0.3823258 -0.17360833 -0.1418724 -0.21141034 0.1227566 -0.11242865 0.028537588 -0.023673812
0.11416895 0.30343568 -0.10425242 -0.08897682 0.110383466 0.42545855 0.39684126 0.24548106
0.24144259 -0.16181941 -0.09268152 -0.04500112 -0.060396336 0.059642237 0.14826983 -0.1301212
-0.1828605 -0.053047482 -0.15669739 -0.50023675 -0.21575838 -0.06513589 0.06662774 -0.027354475
0.28687733 0.20188928 0.28517982 -0.3888 -0.23808417 0.050448876 0.041185796 0.48653153
0.4461933 -0.32279798 0.1017216 0.34911796 0.044394065 -0.12174498 -0.24428208 -0.2332589
0.1531125 0.022627024 -0.01991436 -0.12704086 0.014352081 0.14314535 -0.2596189 0.005995387
-0.18413125 -0.053854328 0.19740753 -0.030597115 0.47334003 -0.05551447 -0.1150374 0.07428716
-0.010076273 0.15165117 -0.01704171 0.20749448 0.15915498 0.11662302 0.1073507 0.047351163
0.22309692 0.32555214 0.17205574 -0.31156883 -0.24802345 0.09725565 -0.25176468 0.1496938
-0.043023605 -0.06589798 -0.11692902 0.06131772 -0.06981969 -0.04654305 0.07815624 -0.057513546
0.092465274 0.23661329 -0.29903185 0.13989428 0.14977883 0.038469773 0.38949457 0.100864425
-0.4422612 -0.2362197 0.11496415 0.113441885 -0.36292326 -0.09252605 0.25142983 -0.386755
-0.08455338 -0.39234474 0.077331126 0.31309733 0.2067441 -0.0094623985 -0.04102587 0.060207743
0.38526487 0.24658126 -0.37920448 -0.05438873 0.006818161 -0.1696834 0.27096936 0.050207548
0.071957715 0.3662531 0.021286959 -0.29416284 -0.11417911 0.20297891 -0.2699686 0.37514073
-0.29108745 -0.32493457 0.0387351 0.036846515 0.43106085 -0.13420404 -0.050811082 0.27032506
0.1251341 -0.12693842 -0.25160047 0.040402863 -0.12444403 -0.3222939 0.398716 -0.2996194
-0.1660079 0.005286693 -0.18807514 -0.33904856 -0.17583764 -0.14748576 -0.13780144 0.105752155
-0.18734334 -0.052381124 0.13625179 -0.30990094 0.454495 0.0060616075 -0.33622 0.14920513
-0.14938186 -0.10653785 0.13757928 -0.12975636 0.15826677 0.45024934 -0.08510804 -0.19646485
-0.33196574 0.08910462 0.1216386 0.34911373 0.2623374 0.26721773 0.3013222 0.08176123
-0.07192301 0.12056878 0.033669434 0.3500489 -0.038371105 0.21303375 -0.028529545 0.30792227
-0.051907666 0.09735838 0.36320862 -0.08900865 -0.2828504 0.30586985 0.27721873 0.104839295
0.09602767 0.109338626 -0.23902439 0.31754193 0.22064485 0.07052884 0.29303464 0.12773778

fc3.bias f4 [10]
00000000: 78d9 29be d309 bdbe 845d 983d 8131 103e
00000010: 3f6d 173f 93de 82be c177 d13c c6f6 0ebe
00000020: 314c 6c3e 4f5b 5bbd
-0.16586864 -0.36921558 0.07439712 0.14081384 0.5915107 -0.25560436 0.025569798 -0.13961324
0.2307594 -0.053553876
